-------------------------------------------------------------------------------------------------------------
                        Parent Layers       Layer (type)         Output Shape         Param #     Tr. Param #
=============================================================================================================
   GPTModel/TokenAndPositionEmbedding        Embedding-1            [80, 256]          20,480          20,480
   GPTModel/TokenAndPositionEmbedding        Embedding-2       [128, 80, 256]       2,560,000       2,560,000
            GPTModel/TransformerBlock          Dropout-3       [128, 80, 256]               0               0
            GPTModel/TransformerBlock        LayerNorm-4       [128, 80, 256]             512             512
            GPTModel/TransformerBlock           Linear-5       [128, 80, 256]          65,792          65,792
            GPTModel/TransformerBlock           Linear-6       [128, 80, 256]          65,792          65,792
            GPTModel/TransformerBlock          Dropout-7       [128, 80, 256]               0               0
            GPTModel/TransformerBlock        LayerNorm-8       [128, 80, 256]             512             512
            GPTModel/TransformerBlock          Dropout-9       [128, 80, 256]               0               0
            GPTModel/TransformerBlock       LayerNorm-10       [128, 80, 256]             512             512
            GPTModel/TransformerBlock          Linear-11       [128, 80, 256]          65,792          65,792
            GPTModel/TransformerBlock          Linear-12       [128, 80, 256]          65,792          65,792
            GPTModel/TransformerBlock         Dropout-13       [128, 80, 256]               0               0
            GPTModel/TransformerBlock       LayerNorm-14       [128, 80, 256]             512             512
            GPTModel/TransformerBlock         Dropout-15       [128, 80, 256]               0               0
            GPTModel/TransformerBlock       LayerNorm-16       [128, 80, 256]             512             512
            GPTModel/TransformerBlock          Linear-17       [128, 80, 256]          65,792          65,792
            GPTModel/TransformerBlock          Linear-18       [128, 80, 256]          65,792          65,792
            GPTModel/TransformerBlock         Dropout-19       [128, 80, 256]               0               0
            GPTModel/TransformerBlock       LayerNorm-20       [128, 80, 256]             512             512
            GPTModel/TransformerBlock         Dropout-21       [128, 80, 256]               0               0
            GPTModel/TransformerBlock       LayerNorm-22       [128, 80, 256]             512             512
            GPTModel/TransformerBlock          Linear-23       [128, 80, 256]          65,792          65,792
            GPTModel/TransformerBlock          Linear-24       [128, 80, 256]          65,792          65,792
            GPTModel/TransformerBlock         Dropout-25       [128, 80, 256]               0               0
            GPTModel/TransformerBlock       LayerNorm-26       [128, 80, 256]             512             512
            GPTModel/TransformerBlock         Dropout-27       [128, 80, 256]               0               0
            GPTModel/TransformerBlock       LayerNorm-28       [128, 80, 256]             512             512
            GPTModel/TransformerBlock          Linear-29       [128, 80, 256]          65,792          65,792
            GPTModel/TransformerBlock          Linear-30       [128, 80, 256]          65,792          65,792
            GPTModel/TransformerBlock         Dropout-31       [128, 80, 256]               0               0
            GPTModel/TransformerBlock       LayerNorm-32       [128, 80, 256]             512             512
                             GPTModel          Linear-33     [128, 80, 10000]       2,570,000       2,570,000
=============================================================================================================
Total params: 5,813,520
Trainable params: 5,813,520
Non-trainable params: 0
-------------------------------------------------------------------------------------------------------------
Training Started
Epoch: 1, Training Loss: 2.5014

Generated text:
wine review : greece 
…
