-------------------------------------------------------------------------------------------------------------
                        Parent Layers       Layer (type)         Output Shape         Param #     Tr. Param #
=============================================================================================================
   GPTModel/TokenAndPositionEmbedding        Embedding-1            [80, 256]          20,480          20,480
   GPTModel/TokenAndPositionEmbedding        Embedding-2       [128, 80, 256]       2,560,000       2,560,000
            GPTModel/TransformerBlock          Dropout-3       [128, 80, 256]               0               0
            GPTModel/TransformerBlock        LayerNorm-4       [128, 80, 256]             512             512
            GPTModel/TransformerBlock           Linear-5       [128, 80, 256]          65,792          65,792
            GPTModel/TransformerBlock           Linear-6       [128, 80, 256]          65,792          65,792
            GPTModel/TransformerBlock          Dropout-7       [128, 80, 256]               0               0
            GPTModel/TransformerBlock        LayerNorm-8       [128, 80, 256]             512             512
                             GPTModel           Linear-9     [128, 80, 10000]       2,570,000       2,570,000
=============================================================================================================
Total params: 5,283,088
Trainable params: 5,283,088
Non-trainable params: 0
-------------------------------------------------------------------------------------------------------------
Training Started
Epoch: 1, Training Loss: 2.7130

Generated text:
wine review : us : ca
…
